…
lly a saved learner, and it houses two main things:\n\nPre-processing Steps: This includes all the steps needed to turn your raw images into something model can understand. Essentially, this is the information your DataLoaders(dls), DataBlock, or any other pre-processing pipeline you’ve set up.\nThe Trained Model: This is the most crucial part - a model that has been trained and is ready to make predictions.\n\nTo peek inside, we can load the model back up and check it out:\n\nm = learn.model\nm\n\n\n\nSequential(\n  (0): TimmBody(\n    (model): ConvNeXt(\n      (stem): Sequential(\n        (0): Conv2d(3, 96, kernel_size=(4, 4), stride=(4, 4))\n        (1): LayerNorm2d((96,), eps=1e-06, elementwise_affine=True)\n      )\n      (stages): Sequential(\n        (0): ConvNeXtStage(\n          (downsample): Identity()\n          (blocks): Sequential(\n            (0): ConvNeXtBlock(\n              (conv_dw): Conv2d(96, 96, kernel_size=(7, 7), stride=(1, 1), padding=(3, 3), groups=96)\n              (norm): LayerNorm((96,), eps=1e-06, elementwise_affine=True)\n              (mlp): Mlp(\n                (fc1): Linear(in_features=96, out_features=384, bias=True)\n                (act): GELU()\n                (drop1): Dropout(p=0.0, inplace=False)\n                (norm): Identity()\n                (fc2): Linear(in_features=384, out_features=96, bias=True)\n                (drop2): Dropout(p=0.0, inplace=False)\n              )\n              (shortcut): Identity()\n              (drop_path): Identity()\n            )\n            (1): ConvNeXtBlock(\n              (conv_dw): Conv2d(96, 96, kernel_size=(7, 7), stride=(1, 1), padding=(3, 3), groups=96)\n              (norm): LayerNorm((96,), eps=1e-06, elementwise_affine=True)\n              (mlp): Mlp(\n                (fc1): Linear(in_features=96, out_features=384, bias=True)\n                (act): GELU()\n                (drop1): Dropout(p=0.0, inplace=False)\n                (norm): Identity()\n                (fc2): Linear(in_features=384, out_features=96, bias=True)\n                (drop2): Dropout(p=0.0, inplace=False)\n              )\n              (shortcut): Identity()\n              (drop_path): Identity()\n            )\n            (2): ConvNeXtBlock(\n              (conv_dw): Conv2d(96, 96, kernel_size=(7, 7), stride=(1, 1), padding=(3, 3), groups=96)\n              (norm): LayerNorm((96,), eps=1e-06, elementwise_affine=True)\n              (mlp): Mlp(\n                (fc1): Linear(in_features=96, out_features=384, bias=True)\n                (act): GELU()\n                (drop1): Dropout(p=0.0, inplace=False)\n                (norm): Identity()\n                (fc2): Linear(in_features=384, out_features=96, bias=True)\n                (drop2): Dropout(p=0.0, inplace=False)\n              )\n              (shortcut): Identity()\n              (drop_path): Identity()\n            )\n          )\n        )\n        (1): ConvNeXtStage(\n          (downsample): Sequential(\n            (0): LayerNorm2d((96,), eps=1e-06, elementwise_affine=True)\n            (1): Conv2d(96, 192, kernel_size=(2, 2), stride=(2, 2))\n          )\n          (blocks): Sequential(\n            (0): ConvNeXtBlock(\n              (conv_dw): Conv2d(192, 192, kernel_size=(7, 7), stride=(1, 1), padding=(3, 3), groups=192)\n              (norm): LayerNorm((192,), eps=1e-06, elementwise_affine=True)\n              (mlp): Mlp(\n                (fc1): Linear(in_features=192, out_features=768, bias=True)\n                (act): GELU()\n                (drop1): Dropout(p=0.0, inplace=False)\n                (norm): Identity()\n                (fc2): Linear(in_features=768, out_features=192, bias=True)\n                (drop2): Dropout(p=0.0, inplace=False)\n              )\n              (shortcut): Identity()\n              (drop_path): Identity()\n            )\n            (1): ConvNeXtBlock(\n              (conv_dw): Conv2d(192, 192, kernel_size=(7, 7), stride=(1, 1), padding=(3, 3), groups=192)\n              (norm): LayerNorm((192,), eps=1e-06, elementwise_affine=True)\n              (mlp): Mlp(\n                (fc1): Linear(in_features=192, out_features=768, bias=True)\n                (act): GELU()\n                (drop1): Dropout(p=0.0, inplace=False)\n                (norm): Identity()\n                (fc2): Linear(in_features=768, out_features=192, bias=True)\n                (drop2): Dropout(p=0.0, inplace=False)\n              )\n              (shortcut): Identity()\n              (drop_path): Identity()\n            )\n            (2): ConvNeXtBlock(\n              (conv_dw): Conv2d(192, 192, kernel_size=(7, 7), stride=(1, 1), padding=(3, 3), groups=192)\n              (norm): LayerNorm((192,), eps=1e-06, elementwise_affine=True)\n              (mlp): Mlp(\n                (fc1): Linear(in_features=192, out_features=768, bias=True)\n                (act): GELU()\n                (drop1): Dropout(p=0.0, inplace=False)\n                (norm): Identity()\n                (fc2): Linear(in_features=768, out_features=192, bias=True)\n                (drop2): Dropout(p=0.0, inplace=False)\n              )\n              (shortcut): Identity()\n              (drop_path): Identity()\n            )\n          )\n        )\n        (2): ConvNeXtStage(\n          (downsample): Sequential(\n            (0): LayerNorm2d((192,), eps=1e-06, elementwise_affine=True)\n            (1): Conv2d(192, 384, kernel_size=(2, 2), stride=(2, 2))\n          )\n          (blocks): Sequential(\n            (0): ConvNeXtBlock(\n              (conv_dw): Conv2d(384, 384, kernel_size=(7, 7), stride=(1, 1), padding=(3, 3), groups=384)\n              (norm): LayerNorm((384,), eps=1e-06, elementwise_affine=True)\n              (mlp): Mlp(\n                (fc1): Linear(in_features=384, out_features=1536, bias=True)\n                (act): GELU()\n                (drop1): Dropout(p=0.0, inplace=False)\n                (norm): Identity()\n                (fc2): Linear(in_features=1536, out_features=384, bias=True)\n                (drop2): Dropout(p=0.0, inplace=False)\n              )\n              (shortcut): Identity()\n              (drop_path): Identity()\n            )\n            (1): ConvNeXtBlock(\n              (conv_dw): Conv2d(384, 384, kernel_size=(7, 7), stride=(1, 1), padding=(3, 3), groups=384)\n              (norm): LayerNorm((384,), eps=1e-06, elementwise_affine=True)\n              (mlp): Mlp(\n                (fc1): Linear(in_features=384, out_features=1536, bias=True)\n                (act): GELU()\n                (drop1): Dropout(p=0.0, inplace=False)\n                (norm): Identity()\n                (fc2): Linear(in_features=1536, out_features=384, bias=True)\n                (drop2): Dropout(p=0.0, inplace=False)\n              )\n              (shortcut): Identity()\n              (drop_path): Identity()\n            )\n            (2): ConvNeXtBlock(\n              (conv_dw): Conv2d(384, 384, kernel_size=(7, 7), stride=(1, 1), padding=(3, 3), groups=384)\n              (norm): LayerNorm((384,), eps=1e-06, elementwise_affine=True)\n              (mlp): Mlp(\n                (fc1): Linear(in_features=384, out_features=1536, bias=True)\n                (act): GELU()\n                (drop1): Dropout(p=0.0, inplace=False)\n                (norm): Identity()\n                (fc2): Linear(in_features=1536, out_features=384, bias=True)\n                (drop2): Dropout(p=0.0, inplace=False)\n              )\n              (shortcut): Identity()\n              (drop_path): Identity()\n            )\n            (3): ConvNeXtBlock(\n              (conv_dw): Conv2d(384, 384, kernel_size=(7, 7), stride=(1, 1), padding=(3, 3), groups=384)\n              (norm): LayerNorm((384,), eps=1e-06, elementwise_affine=True)\n              (mlp): Mlp(\n                (fc1): Linear(in_features=384, out_features=1536, bias=True)\n                (act): GELU()\n                (drop1): Dropout(p=0.0, inplace=False)\n                (norm): Identity()\n                (fc2): Linear(in_features=1536, out_features=384, bias=True)\n                (drop2): Dropout(p=0.0, inplace=False)\n              )\n              (shortcut): Identity()\n              (drop_path): Identity()\n            )\n            (4): ConvNeXtBlock(\n              (conv_dw): Conv2d(384, 384, kernel_size=(7, 7), stride=(1, 1), padding=(3, 3), groups=384)\n              (norm): LayerNorm((384,), eps=1e-06, elementwise_affine=True)\n              (mlp): Mlp(\n                (fc1): Linear(in_features=384, out_features=1536, bias=True)\n                (act): GELU()\n                (drop1): Dropout(p=0.0, inplace=False)\n                (norm): Identity()\n                (fc2): Linear(in_features=1536, out_features=384, bias=True)\n                (drop2): Dropout(p=0.0, inplace=False)\n              )\n              (shortcut): Identity()\n              (drop_path): Identity()\n            )\n            (5): ConvNeXtBlock(\n              (conv_dw): Conv2d(384, 384, kernel_size=(7, 7), stride=(1, 1), padding=(3, 3), groups=384)\n              (norm): LayerNorm((384,), eps=1e-06, elementwise_affine=True)\n              (mlp): Mlp(\n                (fc1): Linear(in_features=384, out_features=1536, bias=True)\n                (act): GELU()\n                (drop1): Dropout(p=0.0, inplace=False)\n                (norm): Identity()\n                (fc2): Linear(in_features=1536, out_features=384, bias=True)\n                (drop2): Dropout(p=0.0, inplace=False)\n              )\n              (shortcut): Identity()\n              (drop_path): Identity()\n            )\n            (6): ConvNeXtBlock(\n              (conv_dw): Conv2d(384, 384, kernel_size=(7, 7), stride=(1, 1), padding=(3, 3), groups=384)\n              (norm): LayerNorm((384,), eps=1e-06, elementwise_affine=True)\n              (mlp): Mlp(\n                (fc1): Linear(in_features=384, out_features=1536, bias=True)\n                (act): GELU()\n                (drop1): Dropout(p=0.0, inplace=False)\n                (norm): Identity()\n                (fc2): Linear(in_features=1536, out_features=384, bias=True)\n                (drop2): Dropout(p=0.0, inplace=False)\n              )\n              (shortcut): Identity()\n              (drop_path): Identity()\n            )\n            (7): ConvNeXtBlock(\n              (conv_dw): Conv2d(384, 384, kernel_size=(7, 7), stride=(1, 1), padding=(3, 3), groups=384)\n              (norm): LayerNorm((384,), eps=1e-06, elementwise_affine=True)\n              (mlp): Mlp(\n                (fc1): Linear(in_features=384, out_features=1536, bias=True)\n                (act): GELU()\n                (drop1): Dropout(p=0.0, inplace=False)\n                (norm): Identity()\n                (fc2): Linear(in_features=1536, out_features=384, bias=True)\n                (drop2): Dropout(p=0.0, inplace=False)\n              )\n              (shortcut): Identity()\n              (drop_path): Identity()\n            )\n            (8): ConvNeXtBlock(\n              (conv_dw): Conv2d(384, 384, kernel_size=(7, 7), stride=(1, 1), padding=(3, 3), groups=384)\n              (norm): LayerNorm((384,), eps=1e-06, elementwise_affine=True)\n              (mlp): Mlp(\n                (fc1): Linear(in_features=384, out_features=1536, bias=True)\n                (act): GELU()\n                (drop1): Dropout(p=0.0, inplace=False)\n                (norm): Identity()\n                (fc2): Linear(in_features=1536, out_features=384, bias=True)\n                (drop2): Dropout(p=0.0, inplace=False)\n              )\n              (shortcut): Identity()\n              (drop_path): Identity()\n            )\n          )\n        )\n        (3): ConvNeXtStage(\n          (downsample): Sequential(\n            (0): LayerNorm2d((384,), eps=1e-06, elementwise_affine=True)\n            (1): Conv2d(384, 768, kernel_size=(2, 2), stride=(2, 2))\n          )\n          (blocks): Sequential(\n            (0): ConvNeXtBlock(\n              (conv_dw): Conv2d(768, 768, kernel_size=(7, 7), stride=(1, 1), padding=(3, 3), groups=768)\n              (norm): LayerNorm((768,), eps=1e-06, elementwise_affine=True)\n              (mlp): Mlp(\n                (fc1): Linear(in_features=768, out_features=3072, bias=True)\n                (act): GELU()\n                (drop1): Dropout(p=0.0, inplace=False)\n                (norm): Identity()\n                (fc2): Linear(in_features=3072, out_features=768, bias=True)\n                (drop2): Dropout(p=0.0, inplace=False)\n              )\n              (shortcut): Identity()\n              (drop_path): Identity()\n            )\n            (1): ConvNeXtBlock(\n              (conv_dw): Conv2d(768, 768, kernel_size=(7, 7), stride=(1, 1), padding=(3, 3), groups=768)\n              (norm): LayerNorm((768,), eps=1e-06, elementwise_affine=True)\n              (mlp): Mlp(\n                (fc1): Linear(in_features=768, out_features=3072, bias=True)\n                (act): GELU()\n                (drop1): Dropout(p=0.0, inplace=False)\n                (norm): Identity()\n                (fc2): Linear(in_features=3072, out_features=768, bias=True)\n                (drop2): Dropout(p=0.0, inplace=False)\n              )\n              (shortcut): Identity()\n              (drop_path): Identity()\n            )\n            (2): ConvNeXtBlock(\n              (conv_dw): Conv2d(768, 768, kernel_size=(7, 7), stride=(1, 1), padding=(3, 3), groups=768)\n              (norm): LayerNorm((768,), eps=1e-06, elementwise_affine=True)\n              (mlp): Mlp(\n                (fc1): Linear(in_features=768, out_features=3072, bias=True)\n                (act): GELU()\n                (drop1): Dropout(p=0.0, inplace=False)\n                (norm): Identity()\n                (fc2): Linear(in_features=3072, out_features=768, bias=True)\n                (drop2): Dropout(p=0.0, inplace=False)\n              )\n              (shortcut): Identity()\n              (drop_path): Identity()\n            )\n          )\n        )\n      )\n      (norm_pre): Identity()\n      (head): NormMlpClassifierHead(\n        (global_pool): SelectAdaptivePool2d(pool_type=avg, flatten=Identity())\n        (norm): LayerNorm2d((768,), eps=1e-06, elementwise_affine=True)\n        (flatten): Flatten(start_dim=1, end_dim=-1)\n        (pre_logits): Identity()\n        (drop): Dropout(p=0.0, inplace=False)\n        (fc): Identity()\n      )\n    )\n  )\n  (1): Sequential(\n    (0): AdaptiveConcatPool2d(\n      (ap): AdaptiveAvgPool2d(output_size=1)\n      (mp): AdaptiveMaxPool2d(output_size=1)\n    )\n    (1): fastai.layers.Flatten(full=False)\n    (2): BatchNorm1d(1536, eps=1e-05, momentum=0.1, affine=True, track_running_stats=True)\n    (3): Dropout(p=0.25, inplace=False)\n    (4): Linear(in_features=1536, out_features=512, bias=False)\n    (5): ReLU(inplace=True)\n    (6): BatchNorm1d(512, eps=1e-05, momentum=0.1, affine=True, track_running_stats=True)\n    (7): Dropout(p=0.5, inplace=False)\n    (8): Linear(in_features=512, out_features=37, bias=False)\n  )\n)\n\n\n\n\nWhat’s All This Stuff?\nAlright, there’s a lot to digest here. Basically, the model is structured in layers upon layers. Here’s the breakdown:\nTimmBody: this contains most of the model architecture. Inside the TimmBody. you’ll find:\n\nModel: The main model components.\nStem: The initial layers that process the raw input.\nStages: The
…
